net.pth (torch, 1807 bytes, 4 tensors)

net.0.weight f4 [3, 2]
0	0x4011cdb0	2.2781792
1	0xbd856c09	-0.06514747
2	0xbf864d56	-1.0492351
3	0x3ffe5f82	1.9872897
4	0xbf9d5a0d	-1.2293106
5	0xbff53e59	-1.9159652

net.0.bias f4 [3]
0	0xbf1133a7	-0.5671944
1	0xbf2958cd	-0.66151124
2	0xbf041bfe	-0.5160521

net.2.weight f4 [2, 3]
0	0x402b0fcc	2.6728392
1	0x402a6e67	2.6629884
2	0x40254cd9	2.5828154
3	0xbf958544	-1.1681294
4	0xbf9adb62	-1.20982
5	0xbfa223a4	-1.2667127

net.2.bias f4 [2]
0	0xc031a302	-2.7755742
1	0x409e506d	4.9473176
