net.pth (torch, 1871 bytes, 4 tensors)

net.0.weight f4 [7, 2]
0	0x3fcd5583	1.6041721
1	0xbff81a0f	-1.9382952
2	0x4016c08c	2.3555021
3	0x40187464	2.382104
4	0xbffe170d	-1.9850785
5	0xbff3d6a9	-1.9049884
6	0x3fae4a38	1.36164
7	0xbf3723a7	-0.71538776
8	0x3e8c37d0	0.27386332
9	0xbf12173e	-0.57066715
10	0xc00c623b	-2.1934955
11	0x3fe34fd1	1.7758733
12	0xbec30c33	-0.38095245
13	0xc000d84a	-2.0132012

net.0.bias f4 [7]
0	0xbfb1da62	-1.389477
1	0xbfb48273	-1.410231
2	0xbfaaaa0c	-1.3333144
3	0xbf426ce7	-0.7594742
4	0x403e1e69	2.970606
5	0xbfbee344	-1.4913106
6	0xbf09b194	-0.5378659

net.2.weight f4 [2, 7]
0	0x401a1f53	2.4081619
1	0x40024c10	2.0358925
2	0x401c62a3	2.4435203
3	0x40298b98	2.6491451
4	0xbf70527f	-0.9387588
5	0x4021531a	2.520697
6	0x3f8ea035	1.1142641
7	0xbfdcbe29	-1.7245532
8	0xbfbff29b	-1.4995912
9	0xbfeeb682	-1.8649447
10	0xc003abb5	-2.0573552
11	0x4011c3d9	2.2775786
12	0xbff89bfe	-1.9422605
13	0xbf3b4e9f	-0.7316684

net.2.bias f4 [2]
0	0xbf5b5f43	-0.8569223
1	0x400c7722	2.1947713
