net.pth (torch, 1935 bytes, 4 tensors)

net.0.weight f4 [7, 2]
0	0xbe21f5f7	-0.15816484
1	0xbcfe06b9	-0.031009065
2	0x3dc37aff	0.09544944
3	0xbe80bf43	-0.2514592
4	0xbe488ad4	-0.19584209
5	0xc02ba1b3	-2.6817443
6	0x3e8253b4	0.25454485
7	0x4022bbb3	2.5427063
8	0x4017e0ab	2.3730876
9	0xbe5054a7	-0.20344792
10	0x3c0af2c2	0.00848073
11	0xbd36809a	-0.044556238
12	0xc000c8ec	-2.0122633
13	0x3df52b30	0.11971128

net.0.bias f4 [7]
0	0xbef3f9a8	-0.4765141
1	0xbf2f393f	-0.68446726
2	0xbfe419f8	-1.7820425
3	0xbfd62e81	-1.6732942
4	0xbfd2739c	-1.6441531
5	0xbdf433a9	-0.11923916
6	0xbfb22845	-1.3918539

net.2.weight f4 [2, 7]
0	0x3ceaabe5	0.028646419
1	0x3cab9ce5	0.020948837
2	0x402ee0eb	2.732478
3	0x4028ee9c	2.6395636
4	0x403705ea	2.859736
5	0xbe289dae	-0.164664
6	0x405d2253	3.45522
7	0xbdc7f81c	-0.0976412
8	0x3dc3f00a	0.09567268
9	0xbfb9a838	-1.4504461
10	0xbfc305c1	-1.5236131
11	0xbfe5798a	-1.7927716
12	0x3e0d0845	0.13772686
13	0xc0048afb	-2.0709827

net.2.bias f4 [2]
0	0xbfefc7e0	-1.8732872
1	0x40919159	4.5489926
