net.pth (torch, 1871 bytes, 4 tensors)

net.0.weight f4 [7, 2]
00000000: 0f4f afbe d8bd d2bd 8e11 1040 ea7f 94bf
00000010: 7b0f 0dc0 0bd8 863f 02e2 e8bf e4c9 b0bf
00000020: 65af 27be de19 1740 825e a43e 41da 0ec0
00000030: a61f 0840 685f bd3f
-0.34240004 -0.10290116 2.2510715 -1.1601536 -2.2040699 1.0534681 -1.8193972 -1.3811612
-0.16375501 2.3609538 0.32103354 -2.2320712 2.1269317 1.4794741

net.0.bias f4 [7]
00000000: 6ddf 5140 59b0 7ebf 6973 84bf c1fd 5dbf
00000010: d6cf 78bf b5c0 4ebf 8f1f 9ebf
3.2792618 -0.99487835 -1.034772 -0.8671532 -0.9719213 -0.807628 -1.2353381

net.2.weight f4 [2, 7]
00000000: 0257 98bf 9276 0e40 0f19 0c40 a7f2 1640
00000010: ea34 0e40 7b26 0440 28e1 0b40 a6ee 1540
00000020: 56f6 b3bf e8df e1bf 2fde 0cc0 6db0 b8bf
00000030: 8eab c3bf cf2f c9bf
-1.1901553 2.225987 2.1890295 2.3585603 2.2219796 2.0648487 2.1856174 2.342691
-1.4059551 -1.7646456 -2.201061 -1.4428841 -1.5286729 -1.5717715

net.2.bias f4 [2]
00000000: 24fe 0cbf 44ab e33f
-0.5507529 1.7786641
